…
OMP: Info #171: KMP_AFFINITY: OS proc 1 maps to package 0 core 1 
OMP: Info #171: KMP_AFFINITY: OS proc 2 maps to package 0 core 2 
OMP: Info #250: KMP_AFFINITY: pid 15167 tid 15167 thread 0 bound to OS proc set 0
2019-07-15 14:23:21.385433: I tensorflow/core/common_runtime/process_util.cc:71] Creating new thread pool with default inter op setting: 2. Tune using inter_op_parallelism_threads for best performance.
_________________________________________________________________
Layer (type)                 Output Shape              Param #   
=================================================================
conv1 (Conv3D)               (None, 59, 99, 99, 5)     45        
_________________________________________________________________
dropout (Dropout)            (None, 59, 99, 99, 5)     0         
_________________________________________________________________
max_pooling3d (MaxPooling3D) (None, 29, 49, 49, 5)     0         
_________________________________________________________________
conv2 (Conv3D)               (None, 28, 48, 48, 15)    615       
_________________________________________________________________
dropout_1 (Dropout)          (None, 28, 48, 48, 15)    0         
_________________________________________________________________
max_pooling3d_1 (MaxPooling3 (None, 14, 24, 24, 15)    0         
_________________________________________________________________
conv3 (Conv3D)               (None, 13, 23, 23, 5)     605       
_________________________________________________________________
dropout_2 (Dropout)          (None, 13, 23, 23, 5)     0         
_________________________________________________________________
max_pooling3d_2 (MaxPooling3 (None, 6, 11, 11, 5)      0         
_________________________________________________________________
conv4 (Conv3D)               (None, 5, 10, 10, 5)      205       
_________________________________________________________________
dropout_3 (Dropout)          (None, 5, 10, 10, 5)      0         
_________________________________________________________________
max_pooling3d_3 (MaxPooling3 (None, 2, 5, 5, 5)        0         
_________________________________________________________________
flatten (Flatten)            (None, 250)               0         
_________________________________________________________________
dense1 (Dense)               (None, 33)                8283      
_________________________________________________________________
dropout_4 (Dropout)          (None, 33)                0         
_________________________________________________________________
dense2 (Dense)               (None, 15)                510       
_________________________________________________________________
dropout_5 (Dropout)          (None, 15)                0         
_________________________________________________________________
dense3 (Dense)               (None, 4)                 64        
=================================================================
Total params: 10,327
Trainable params: 10,327
Non-trainable params: 0
_________________________________________________________________
None
OMP: Info #250: KMP_AFFINITY: pid 15186 tid 15186 thread 0 bound to OS proc set 0
OMP: Info #250: KMP_AFFINITY: pid 15186 tid 15195 thread 1 bound to OS proc set 1
OMP: Info #250: KMP_AFFINITY: pid 15186 tid 15196 thread 2 bound to OS proc set 2
…
